learning/tudui.onnx (onnx, 8553 bytes, 2 tensors)

seq.0.bias f4 [20]
0.05111073 0.030093804 -0.11233804 -0.07527438 -0.04741238 0.0056880713 0.023418456 -0.08089407
-0.054488115 0.02618821 -0.008971691 0.0925114 0.10281859 -0.006049916 -0.08236603 0.07027733
0.10682589 0.08836897 -0.09838521 0.08933033
00000000: 7c59 513d 4887 f63c 7c11 e6bd 7429 9abd
00000010: 7c33 42bd 0063 ba3b 10d8 bf3c caab a5bd
00000020: ee2e 5fbd a888 d63c 00fe 12bc 9e76 bd3d
00000030: 8e92 d23d 603e c6bb 85af a8bd 90ed 8f3d
00000040: 88c7 da3d cafa b43d 2f7e c9bd d2f2 b63d

seq.1.bias f4 [20]
0.010021888 -0.0014962591 -0.03518471 -0.026247906 -0.037928417 -0.03237432 -0.04268198 0.03677145
-0.043914042 0.03295706 -0.040098548 0.020690482 -0.008355454 -0.03864947 0.028211448 -0.03685102
0.03713944 -0.03651543 0.00491805 -0.030388054
00000000: d832 243c 201e c4ba d81d 10bd d905 d7bc
00000010: d45a 1bbd ef9a 04bd 4dd3 2ebd a99d 163d
00000020: 36df 33bd fbfd 063d 603e 24bd 167f a93c
00000030: 50e5 08bc e84e 1ebd b21b e73c 18f1 16bd
00000040: 871f 183d 3491 15bd 9827 a13b 5ef0 f8bc
